…
ls == \u0026#39;Coat\u0026#39;) client_c : (labels == \u0026#39;Sandal\u0026#39;) | (labels == \u0026#39;Shirt\u0026#39;) client_d : (labels == \u0026#39;Sneaker\u0026#39;) | (labels == \u0026#39;Bag\u0026#39;) | (labels == \u0026#39;Ankle Boot\u0026#39;) Model Development We used the following Convolutional Neural Network for all the clients and the community model : _________________________________________________________________ Layer (type) Output Shape Param # ================================================================= fashion (InputLayer) [(None, 28, 28, 1)] 0 conv2d_240 (Conv2D) (None, 24, 24, 128) 3328 max_pooling2d_240 (MaxPool (None, 12, 12, 128) 0 ing2D) conv2d_241 (Conv2D) (None, 6, 6, 128) 802944 max_pooling2d_241 (MaxPool (None, 3, 3, 128) 0 ing2D) flatten_120 (Flatten) (None, 1152) 0 dense_120 (Dense) (None, 512) 590336 predictions (Dense) (None, 10) 5130 ================================================================= Total params: 1401738 (5.35 MB) Trainable params: 1401738 (5.35 MB) Non-trainable params: 0 (0.00 Byte) _________________________________________________________________ We used Keras wrapper on Tensorflow for implementing the models. For visualization we stuck to Matplotlib and Seaborn.\nFor the scaffold model, each model was also
…
