…
client_b : (labels == 'Dress') | (labels == 'Coat')
client_c : (labels == 'Sandal') | (labels == 'Shirt')
client_d : (labels == 'Sneaker') | (labels == 'Bag') | (labels == 'Ankle Boot')
&lt;/code>&lt;/pre>
&lt;h2 id="model-development">Model Development&lt;/h2>
&lt;p>We used the following Convolutional Neural Network for all the clients and the community model : &lt;br>&lt;/p>
&lt;pre>&lt;code> _________________________________________________________________
Layer (type) Output Shape Param #
=================================================================
fashion (InputLayer) [(None, 28, 28, 1)] 0
conv2d_240 (Conv2D) (None, 24, 24, 128) 3328
max_pooling2d_240 (MaxPool (None, 12, 12, 128) 0
ing2D)
conv2d_241 (Conv2D) (None, 6, 6, 128) 802944
max_pooling2d_241 (MaxPool (None, 3, 3, 128) 0
ing2D)
flatten_120 (Flatten) (None, 1152) 0
dense_120 (Dense) (None, 512) 590336
predictions (Dense) (None, 10) 5130
=================================================================
Total params: 1401738 (5.35 MB)
Trainable params: 1401738 (5.35 MB)
Non-trainable params: 0 (0.00 Byte)
_________________________________________________________________
&lt;/code>&lt;/pre>
&lt;p>We used Keras wrapper on Tensorflow for implementing the models. For visualization we stuck to Matplotlib and Seaborn.&lt;/p>
&lt;p>For the scaffold model, each model was also equipped with client control variate for each layer to adjust for the drift. Since we had the architecture of our model fixed before hand, we could keep the vector structures of the control variates also the same as the layer weights.&lt;/p>
…
